models/Model_D_(finetuned).pth (torch, 849833 bytes, 9 tensors)

0.weight f4 [512, 89]
000000 1c e2 b2 be 9c 42 9d 3f aa 6c 99 3f 0a 54 b4 bc
       -0.34938133 1.2285953 1.1986287 -0.02201273
000010 a8 56 c0 be 49 66 0c bd 44 39 64 bf b7 de 87 3e
       -0.37566113 -0.034277234 -0.8914988 0.26537105
000020 46 08 5c bf b7 5b 9b 3f c3 91 a7 3f 69 8f b5 bf
       -0.85950124 1.2137364 1.3091358 -1.418439
000030 d9 16 aa bd 06 a8 5b bf 71 d5 b9 be d9 ad 26 bf
       -0.08305139 -0.8580326 -0.36295655 -0.6510902
000040 37 dd 28 be 31 98 76 be fe 39 ff bd 69 41 8d be
       -0.16490637 -0.24081494 -0.12462233 -0.27588966
000050 0c 33 a1 bf 71 86 1f be eb 87 a6 bf 94 08 65 bd
       -1.2593703 -0.15578629 -1.3010229 -0.055916384
000060 17 50 93 bf db 7b 39 be 19 4e 70 bf 3a 70 3d be
       -1.1508816 -0.18113653 -0.9386917 -0.18499842
000070 ce c0 c5 3d 86 a6 6b be 03 83 20 be 26 71 0b 3b
       0.09655915 -0.23012742 -0.15674977 0.0021277159
000080 75 ea c1 3d 9d 8c 89 be 9d 17 2f be f7 b9 10 be
       0.09468547 -0.26865092 -0.17098852 -0.1413344
000090 4c 68 05 80 ab c6 9d 3d e5 69 06 bf b7 33 8d bf
       -4.96592e-40 0.077039085 -0.5250533 -1.1031407
0000a0 42 73 1b bf 2a db 93 bf 46 29 13 bf ab 13 26 bf
       -0.60722744 -1.1551259 -0.57484853 -0.6487376
0000b0 cf 91 1a bf 47 00 66 3e 4c a1 06 80 92 cd 8d be
       -0.60378736 0.22461043 -6.08875e-40 -0.276959
0000c0 94 79 4d bd 5a 6c 1c 3e 1d ed 0f 3e 64 66 db bd
       -0.050164774 0.15275708 0.14055295 -0.10712889
0000d0 45 4a a4 bd 7b 91 23 3d 77 6b 23 3c 9a 91 55 bf
       -0.08021978 0.039933663 0.009974352 -0.83425295
0000e0 ec fd 21 c0 b3 10 e7 bf 0e b6 ca bf bd 6b 3d c0
       -2.5311232 -1.8051971 -1.5836809 -2.9597008
0000f0 e2 38 23 c0 e8 27 73 bf 03 8d 52 be 18 5c 11 bd
       -2.5503469 -0.9498277 -0.20561604 -0.035488218
000100 fd a1 ce be b5 f5 56 bf d1 be c0 bf 90 57 5f be
       -0.40357962 -0.8396867 -1.5058233 -0.21810746
000110 d4 b4 03 bc bc f2 31 be 0d 31 60 be 72 a8 36 3c
       -0.008038718 -0.17377752 -0.21893711 0.011148559
000120 2b d4 8f bd f7 c1 0e be ed ba f5 bd 97 37 57 be
       -0.0702289 -0.13941179 -0.11998544 -0.210173
000130 cb 6e 05 00 f9 bf ad 3d cb 9d 0f bf 89 77 8b bf
       4.98923e-40 0.084838815 -0.5610015 -1.0895854
000140 17 db 20 bf 60 a8 80 bf 11 ca 26 bf bd b4 30 bf
       -0.62834305 -1.0051384 -0.6515208 -0.69025785
000150 8c 4b 20 bf dd c2 8e 3e ad bd 06 80 bd 5b 2e bf
       -0.62615275 0.27883044 -6.19056e-40 -0.6810873
000160 42 84 0e bf 6c 0d ac 3d 2e 41 aa bd a7 50 79 bd
       -0.5567056 0.084009975 -0.08313213 -0.06086793
000170 ad 84 3b be ed 18 89 be 01 29 97 bd 89 b9 e5 be
       -0.1831233 -0.2677683 -0.07380868 -0.44868115
000180 cc a8 9e bc ad 3c 99 3e cc 1d 0b bd cc a7 a8 bd
       -0.019367598 0.29929104 -0.033963963 -0.0823513
000190 d5 74 5c be fa 64 c2 3d 84 f9 8c be 2a b2 2b 3e
       -0.21528943 0.09491916 -0.27534115 0.16767183
0001a0 d0 00 33 3e 80 17 aa 3e 90 59 16 be d0 a7 ec bd
       0.17480779 0.33221054 -0.14682603 -0.11555445
0001b0 f5 de 9a be 03 29 24 3f a4 42 03 bf cd d4 45 3d
       -0.30248228 0.6412508 -0.5127356 0.048298646
0001c0 8a d7 73 be 90 a3 97 3d 02 19 ca 3d 4b 74 c2 3d
       -0.2381269 0.07404244 0.09868051 0.094948374
0001d0 61 81 e4 bd 55 bf 61 be 0c f6 10 3f fb 8b b9 3e
       -0.111574896 -0.22045644 0.5662544 0.3623961
0001e0 da 5c db bd 1f fe 9a bc 31 20 2d bb fb 24 7d be
       -0.107110694 -0.018920003 -0.0026416893 -0.24721138
0001f0 f0 30 11 bc 11 97 28 bf 3d f6 97 be 2a e5 30 3c
       -0.008861765 -0.6585551 -0.29680052 0.0107968245
000200 93 22 1e bf 90 b9 af 38 06 15 e8 bd 1c a5 fb be
       -0.61771506 8.379214e-05 -0.11332135 -0.49149406
000210 e0 aa a2 3d 14 68 a2 bd ec 3b 43 be 6f 03 53 be
       0.07942748 -0.079300076 -0.19065827 -0.20606779
000220 dc 09 5f be e8 34 e5 bd bf d7 d2 bd e7 d3 7a bd
       -0.21781105 -0.11191732 -0.102950566 -0.061237242
000230 c8 0e 9a be c7 0a 58 be 11 93 c8 be d2 65 4c be
       -0.30089402 -0.21097861 -0.39174703 -0.19960716
000240 0b ac 72 bd fc 38 ac bd 26 03 17 be 36 47 2e 3d
       -0.059246104 -0.084093064 -0.14747295 0.04254838
000250 68 3c 86 bd a0 6a 04 bf df 37 2a be 37 02 0b be
       -0.0655449 -0.51725197 -0.16622876 -0.13575064
000260 f9 04 8b 3e 6d c6 72 3d d0 3e 8a be 6f b9 3a 3f
       0.2715223 0.059271265 -0.27001047 0.729392
000270 f2 c6 a9 bd 88 3c 2e be 7b f0 1c 3f fa cd db 3e
       -0.08289899 -0.17015278 0.61304444 0.42930585
000280 45 b9 88 3d f4 31 e3 bb 37 ff 73 bd 30 02 3a be
       0.06675962 -0.006933445 -0.059569564 -0.18164897
000290 c9 b5 a2 bd 2a e7 37 bf b9 c8 8d be 2c 9e 06 3d
       -0.07944829 -0.71837103 -0.27692202 0.03286569
0002a0 6b 9a 25 bf c5 39 90 3d 3f 45 52 be 6d e8 14 bf
       -0.6468875 0.07042269 -0.20534228 -0.58167154
0002b0 cd b3 21 3e df 63 91 3d de ec f0 bd a2 87 31 be
       0.15791245 0.07099127 -0.11763929 -0.17336896
0002c0 bd 0f e8 bf 61 cb af be 30 5a b5 bd 5e ca 9c 3f
       -1.8129803 -0.34334853 -0.088550925 1.2249258
0002d0 73 a4 91 3f 2f 60 ae 3d ef 3f aa be 84 a2 5d 3d
       1.1378311 0.08514439 -0.33251902 0.054110065
0002e0 98 15 8c be f7 6c 12 be d1 78 48 bf bb c7 99 3f
       -0.27360225 -0.1429938 -0.7830935 1.2014078
0002f0 65 0c aa 3f 11 24 b2 be 26 4e cf bd 9f 85 8e bf
       1.3285033 -0.3479314 -0.101223275 -1.1134528
000300 40 f1 79 bf 19 47 7f bf 3f b8 3f be 64 78 84 be
       -0.97633743 -0.9971786 -0.18722628 -0.258731
000310 dd 6c 95 bd 60 f8 b2 be 6a bf 9a bf ff 91 c2 3a
       -0.07296155 -0.3495512 -1.2089665 0.0014844536
000320 2d 98 a0 bf ce 17 d4 3c dd 61 a3 bf 96 bf 13 bd
       -1.254644 0.025890257 -1.276424 -0.036071382
000330 09 26 e7 3c 75 ae 7a be b3 1e ab 3d 20 ab 78 be
       0.028216379 -0.24480613 0.08355465 -0.24284029
000340 f6 25 e7 be 86 e1 89 bf e7 1e f9 3b 82 c6 f8 bd
       -0.4514615 -1.0771949 0.007602561 -0.12147237
000350 de 06 53 be b6 04 31 3d 30 e6 7e be c4 da 14 bb
       -0.20608088 0.043217383 -0.24892497 -0.0022713402
000360 81 3c 22 bf f7 2f 6d be 75 5b 1f bf 37 59 91 bf
       -0.6337357 -0.23162828 -0.6224893 -1.1355351
000370 93 dd 73 be d8 54 4a be 27 09 cd bd 05 54 6f bd
       -0.23814993 -0.19758928 -0.10011511 -0.058429737
000380 91 87 3d 3e 4d 53 0c c0 9d f0 5a be 2a 33 8f bc
       0.18508746 -2.1925843 -0.21380849 -0.017480452
000390 ec 2c f7 bd 8b 82 9d be 3a ac 82 be 30 36 22 bd
       -0.12069115 -0.3076366 -0.25522023 -0.03960246
0003a0 38 a0 db bd 64 ae 18 be 0c d6 e9 bc b4 47 44 be
       -0.10723919 -0.14910275 -0.028544448 -0.19167978
0003b0 f5 8d 4a be f4 f8 63 c0 d0 24 49 c0 b4 ca d0 bf
       -0.19780715 -3.56207 -3.1428719 -1.631186
0003c0 3b e8 df be 5c 15 07 bd 1c 13 5e bf 62 58 52 bf
       -0.43731865 -0.032979354 -0.8674791 -0.8216611
0003d0 a8 a1 69 bf 57 d5 bc be 5c ac fa ba f5 7e 90 be
       -0.9126229 -0.36881515 -0.0019124853 -0.2822186
0003e0 eb 73 c9 be 4c 46 97 bf 2c c4 d1 3c 68 4c 21 be
       -0.3934625 -1.1818328 0.025606237 -0.15751803
0003f0 53 60 24 be a3 46 a0 3d 73 40 6c be 4d d7 02 bb
       -0.1605237 0.07825973 -0.2307146 -0.0019964755

0.bias f4 [512]
000000 cc 13 b0 c0 96 db 8f 3f 1d e5 c7 c0 cb 70 85 40
       -5.5024166 1.1238887 -6.246718 4.1700187
000010 91 14 b1 c0 d5 07 dd c0 db 9a 4c c0 29 b0 90 c0
       -5.5337605 -6.907206 -3.1969516 -4.521504
000020 90 86 fe bd 35 8f 89 3f 4c b9 01 c1 40 0e 07 40
       -0.124280095 1.0746828 -8.1077385 2.1102448
000030 1c dc 5b c0 18 9d d4 c0 f4 c1 b8 c0 a6 d1 da 3d
       -3.4353094 -6.6441765 -5.773676 0.106845185
000040 ae 76 56 40 b1 8d a6 3e 43 33 34 bf 19 53 18 bf
       3.3509936 0.32529977 -0.7039072 -0.59501797
000050 d9 5f 97 c0 21 81 6e 40 ef 06 61 3f 6d f1 b7 40
       -4.73045 3.7266314 0.87901205 5.748221
000060 11 3e 91 bf 12 82 a1 c0 18 28 29 be 5f 27 74 c0
       -1.1347066 -5.0471277 -0.16519201 -3.814903
000070 58 1d db c0 14 21 89 40 72 6b ac c0 91 91 a3 40
       -6.847332 4.285288 -5.388116 5.1115193
000080 0c 13 a7 c0 b6 31 8e c0 f7 37 96 c0 6d 6f 87 c0
       -5.221075 -4.443568 -4.6943316 -4.232352
000090 db 2d 84 c0 ac ab 9d c0 f0 c0 ab c0 4f 5c bb c0
       -4.1305976 -4.927206 -5.367302 -5.855018
0000a0 48 69 6c 40 c1 e9 89 3f a4 ee 33 c0 be 2c 90 c0
       3.6939259 1.0774461 -2.8114405 -4.5054617
0000b0 6b 43 ca c0 cf 11 ae be 11 a2 b7 c0 cd ef 93 c0
       -6.3207297 -0.33997962 -5.7385335 -4.6230226
0000c0 79 86 90 bf b8 74 07 3f 68 72 c4 be 4b 9c 0a c0
       -1.1291038 0.52912474 -0.38368535 -2.1657894
0000d0 36 9b 9f c0 42 a7 67 c0 40 72 bb c0 09 e6 5c c0
       -4.9876966 -3.6195836 -5.8576965 -3.4515402
0000e0 e3 d6 02 c1 70 b7 05 c0 b4 21 db 3f dd 12 ae 3f
       -8.177463 -2.0893211 1.711966 1.3599507
0000f0 05 7b ce be c3 48 a5 3f f9 44 ab c0 e1 be 65 40
       -0.4032823 1.291283 -5.3521695 3.5897753
000100 30 0a ae c0 e3 75 fe 3e 9b 89 b9 c0 d1 2a bb c0
       -5.4387436 0.49699315 -5.7980475 -5.8489766
000110 a8 f8 44 bf e6 02 7c 40 ab 96 7c c0 c4 80 26 40
       -0.7694192 3.937677 -3.946696 2.6016092
000120 d5 e4 7a 3f 5e 40 47 40 da 5d dc 40 6c b5 b8 40
       0.9800542 3.1133037 6.8864565 5.772146
000130 dd 0a 6f 3f 2e fa c8 c0 23 78 d1 c0 65 7a 9f c0
       0.9337595 -6.2805395 -6.545915 -4.9836907
000140 99 b2 33 40 ee 34 41 40 10 26 4c c0 2c ed b1 c0
       2.8077757 3.0188556 -3.1898232 -5.5602016
000150 0b 72 39 c0 0f db f1 bf b0 5f a4 c0 90 13 aa c0
       -2.8975856 -1.8894976 -5.1366806 -5.314888
000160 59 aa 29 c0 31 27 d1 3e d9 7b 17 40 09 04 c5 3f
       -2.6510222 0.40850213 2.366934 1.5391856
000170 4e fc 08 c1 50 e5 6b c0 d3 d0 97 40 c6 5e 79 bf
       -8.561598 -3.6858711 4.744241 -0.9741024
000180 0d 5d 4a bf 42 e1 aa c0 b3 ac 84 40 1d 3e c3 3f
       -0.79048234 -5.3399973 4.1460814 1.525333
000190 5b b4 8e be 9b 43 eb 3f ed 81 9f c0 f8 ba db c0
       -0.27871975 1.8380007 -4.98461 -6.8665733
0001a0 49 0f 3b c0 80 1e 8c 40 4e 1b 7d c0 ad e8 d4 bf
       -2.922808 4.378723 -3.9547915 -1.6633507
0001b0 4d 12 92 be 02 a1 db c0 d2 d0 28 3f 91 77 8d 40
       -0.28529587 -6.8634043 0.65943635 4.4208455
0001c0 b9 09 ec 3f 45 9c 46 c0 a4 0b 23 c0 29 53 bb c0
       1.8440467 -3.103288 -2.5475855 -5.8539014
0001d0 e3 30 a2 40 87 b8 f2 c0 54 3f 63 c0 b6 2e 36 3f
       5.0684676 -7.5850253 -3.5507402 0.71165025
0001e0 42 64 f7 bf 1b 97 cc 3f 61 22 d2 c0 07 8b 8c 40
       -1.9327471 1.5983614 -6.5666966 4.391971
0001f0 c7 4f b4 c0 ee a2 8f 3e bb b7 07 c1 65 a7 24 c0
       -5.6347384 0.28053993 -8.482356 -2.572717
000200 a2 16 6a 40 63 23 a6 c0 95 ef 7f 40 95 c5 98 40
       3.6576314 -5.1918197 3.998998 4.774119
000210 ee 36 e1 c0 cf cd 14 40 23 7c 89 c0 80 63 77 40
       -7.0379553 2.3250616 -4.2964034 3.865448
000220 48 43 93 c0 b9 7d d0 c0 5b 42 02 40 8e 18 93 c0
       -4.601963 -6.515347 2.0353 -4.5967474
000230 af 6d 93 c0 f3 60 a4 c0 4c b7 c2 c0 fd 04 c0 c0
       -4.607139 -5.1368346 -6.084875 -6.000609
000240 92 5a 0b c0 be dc f7 bd 5e 58 f9 3f 87 19 9b 40
       -2.177403 -0.1210265 1.9480093 4.846866
000250 68 39 7a 40 a7 31 9c c0 bc f5 83 40 bd 67 a3 c0
       3.9097538 -4.881061 4.123747 -5.1064134
000260 23 d4 d7 3f a4 36 d1 c0 7e fb 87 3f 1e 21 f1 c0
       1.6861614 -6.53792 1.0623624 -7.5352926
000270 e6 92 a9 bf f4 cf c7 c0 6c 39 46 40 63 92 ca 3f
       -1.3247955 -6.244135 3.0972548 1.5825924
000280 ad 8a 78 c0 16 1d 0e 40 71 3f 85 c0 2b fb 3c c0
       -3.883464 2.2205253 -4.1639943 -2.95283
000290 74 bf b1 c0 36 13 64 c0 8d 98 f2 c0 39 1e 84 3e
       -5.5546207 -3.5636725 -7.581122 0.25804308
0002a0 43 2f 0b c0 cc a6 8b c0 5d 35 dd bf 63 0b a1 40
       -2.1747596 -4.364111 -1.728191 5.03264
0002b0 2b 1e f0 c0 30 55 05 c1 65 72 c4 c0 b3 f2 a0 c0
       -7.5036826 -8.333298 -6.138964 -5.0296264
0002c0 0c 3b ad 3f ab ab 94 c0 92 35 b3 3f dd d4 62 c0
       1.3533645 -4.6459556 1.4000723 -3.5442421
0002d0 1e 56 13 3f 7a 64 b8 c0 be 2d 87 40 58 5e 50 40
       0.5755328 -5.762265 4.224334 3.2557583
0002e0 12 67 0d c0 a2 f2 56 40 29 9e 15 bf 12 2f a1 40
       -2.209416 3.3585591 -0.5844446 5.036996
0002f0 5f f8 25 c0 95 b0 53 40 48 b0 30 c0 bc 8a 98 c0
       -2.5932844 3.3076527 -2.7607594 -4.7669353
000300 ec c8 6c 40 ef b6 a7 c0 bd 63 37 3e 6c a5 7d c0
       3.6997633 -5.2410808 0.17909141 -3.9632215
000310 8f 4e 09 c1 42 07 e2 3e 73 a1 d2 c0 b7 fc be bf
       -8.581679 0.44146162 -6.582208 -1.4920872
000320 a9 2a 10 40 f3 6d 2e 3f a3 b8 41 40 3a 63 82 c0
       2.2526038 0.6813652 3.0268943 -4.0746126
000330 3a 03 a3 c0 41 cd a3 40 a4 41 ab c0 62 f2 57 bf
       -5.094144 5.1188054 -5.351763 -0.8435422
000340 11 53 14 40 be dd 50 40 91 ee 03 3f 01 0d 3e c0
       2.31757 3.263534 0.515359 -2.9695437
000350 5c 08 a6 be 78 48 31 c0 f3 85 45 40 42 22 6b 40
       -0.32428253 -2.7700481 3.0863006 3.673966
000360 5f a8 44 c0 63 45 ab c0 7f 0e 8b 3f 8e 06 59 3f
       -3.0727766 -5.35222 1.0863799 0.84775627
000370 a7 60 4c 40 89 c6 71 c0 74 87 9a be 9b e4 b3 c0
       3.1933992 -3.7777426 -0.30181468 -5.621656
000380 7f cf 59 40 1f 9d 3f 40 ee a9 96 40 fb ba b2 bf
       3.4032896 2.993965 4.7082434 -1.3963312
000390 36 c9 a7 c0 a1 f0 9a c0 04 3f 0e c1 95 fe 7b c0
       -5.243312 -4.8418736 -8.890385 -3.9374135
0003a0 60 b2 83 c0 68 be 63 40 7c 84 11 40 89 bd 96 40
       -4.1155243 3.5584965 2.2737112 4.7106366
0003b0 61 33 91 c0 ea df e4 c0 a8 26 67 c0 32 e4 31 40
       -4.537522 -7.1523333 -3.6117344 2.779553
0003c0 55 b5 28 3f f5 40 8b c0 cb ce a6 c0 72 2f 85 40
       0.6590169 -4.3516793 -5.2127433 4.1620417
0003d0 1c bd da c0 8f 76 8b c0 dd 9d c0 bf 16 d4 f7 3f
       -6.8355846 -4.3582225 -1.5048176 1.9361598
0003e0 19 3f a1 c0 47 e6 50 be 3b fa 99 c0 b2 6c 7e c0
       -5.0389524 -0.20400344 -4.8117957 -3.9753842
0003f0 8f f9 8d c0 04 10 cd c0 bc 23 67 3e e1 be 99 c0
       -4.4367137 -6.408205 0.22572225 -4.8045506

3.weight f4 [256, 512]
000000 79 9b 8e b7 49 a5 cb bc 5a 63 05 80 12 f9 bf bb
       -1.7000117e-05 -0.024859088 -4.94818e-40 -0.005858549
000010 1f a5 f6 3a 24 c2 b7 ba e4 b5 05 39 34 69 05 00
       0.001881752 -0.001401965 0.00012751628 4.96917e-40
000020 0e 96 f4 3a a2 07 3f 3a d9 96 48 bc ed c5 2f bb
       0.0018660442 0.0007287209 -0.012242996 -0.0026820854
000030 f7 63 46 bb 75 53 a3 bb ca 66 05 00 72 95 18 bc
       -0.0030271986 -0.004984314 4.96051e-40 -0.009312974
000040 f9 f4 05 b9 63 e4 a3 bc 27 bb eb bb 8e 14 71 3c
       -0.00012775128 -0.020006364 -0.007193941 0.014714373
000050 5a 0e 37 bc 57 be 3e bd bd 25 61 3a 94 37 5c 3b
       -0.011172855 -0.04656824 0.0008588692 0.0033602463
000060 09 e8 b9 b9 d0 0a 49 bc 0f 75 4c 37 ef 69 05 00
       -0.0003545883 -0.012270644 1.2186602e-05 4.97179e-40
000070 97 78 4b bc fa f2 6b ba cd 92 92 3c f2 bf 29 bc
       -0.012418888 -0.0009000745 0.017892266 -0.010360705
000080 18 ab 93 3a 19 5d 05 80 69 62 05 80 27 36 d8 bb
       0.00112662 -4.92575e-40 -4.9448e-40 -0.0065982523
000090 44 02 50 bc 12 5e 05 80 15 60 05 80 57 07 19 3c
       -0.012695853 -4.92924e-40 -4.93645e-40 0.009340129
0000a0 7c 1f 71 3b 44 e6 ba a3 78 b8 23 b8 bf 43 f0 bb
       0.0036792448 -2.0263682e-17 -3.903403e-05 -0.0073322947
0000b0 4d 75 98 b8 5f 93 a7 bc 99 3e 8c bc 75 7d 76 bc
       -7.269774e-05 -0.020456014 -0.017119693 -0.01504456
0000c0 ed 68 d0 bb 8a 58 aa 3b 13 e2 85 bc 57 0b 88 3c
       -0.0063601644 0.005198543 -0.016343152 0.01660697
0000d0 b3 9f 28 3b 05 ce c1 bb 09 80 5f bb d2 5e 05 00
       0.0025729954 -0.005914452 -0.0034103415 4.93193e-40
0000e0 88 40 b7 35 97 08 1d 3c da 6a 7f bc 14 03 60 bb
       1.3653344e-06 0.0095845675 -0.01558944 -0.0034181522
0000f0 3d c4 e4 bb 53 e4 4f bc 40 25 6f 3c dc 6e f4 bb
       -0.0069814012 -0.012688714 0.014596283 -0.0074595045
000100 09 44 4e bc 64 57 5a bc b0 29 a7 bb 16 5a 45 bc
       -0.012589463 -0.0133265 -0.005101405 -0.012045404
000110 43 bb da bc 07 5b 05 80 77 ed b1 b8 24 83 00 3c
       -0.026700621 -4.91832e-40 -8.484249e-05 0.007843766
000120 58 d4 4c bc 2b c2 93 bc b6 01 69 bb 22 9b 4f bc
       -0.012501799 -0.018036922 -0.0035553998 -0.012671264
000130 32 32 6c bd 9a 4b 2a bc 14 91 03 bd 5a 90 0f bd
       -0.057665057 -0.010394001 -0.03212078 -0.035049774
000140 a2 3a 6f 3b f2 c6 8f ba 38 88 05 bc 78 61 65 ba
       0.0036503454 -0.0010969325 -0.008150153 -0.0008750181
000150 b1 0a 41 bb 26 0c ae af 51 58 2e 27 17 28 5f bb
       -0.0029455835 -3.1659048e-10 2.4195227e-15 -0.0034050995
000160 23 1a e3 bb 29 73 01 b9 72 a9 8d bc 86 e9 31 3b
       -0.006930606 -0.00012345299 -0.017292712 0.0027147247
000170 a8 29 53 bc 0b 46 54 bc dd fc 91 3b 04 65 05 80
       -0.01288835 -0.012956153 0.0044551925 -4.95415e-40
000180 42 69 05 00 69 64 ce ba 45 a3 b1 bb c8 41 48 bc
       4.96937e-40 -0.0015746477 -0.0054210746 -0.012222715
000190 4e 3d 28 bd ff f1 43 bc 00 ea 25 3b 00 10 bd bc
       -0.04107409 -0.011959552 0.0025316477 -0.023078918
0001a0 99 68 05 80 08 21 b5 3b 0f 77 07 3a 45 8a 5b bc
       -4.967e-40 0.0055276193 0.00051675824 -0.013399665
0001b0 57 6f 05 00 1d b3 14 39 05 66 05 00 c0 52 d7 bb
       4.99119e-40 0.00014181105 4.95775e-40 -0.006571144
0001c0 d3 77 1e bb 2f 34 5b 39 f6 5a 69 3b 10 b5 bc bb
       -0.0024180308 0.00020904907 0.0035607195 -0.005758889
0001d0 ab 56 2a bd cb b8 85 ba 03 f8 86 b7 8d 6c 05 00
       -0.04158656 -0.0010202167 -1.6089534e-05 4.98118e-40
0001e0 b2 46 43 bb 30 d5 fd bc ca d5 24 3c 9a 90 cb 3a
       -0.0029796776 -0.030985445 0.010060737 0.0015530766
0001f0 56 1d 0f bb 57 19 0d bd 7d 5b 05 80 58 18 0b 3d
       -0.0021837554 -0.034447994 -4.91997e-40 0.033958763
000200 fe b1 f2 bc e2 1d ae ba 43 7a 96 02 79 30 15 bc
       -0.029625889 -0.0013284052 2.2110694e-37 -0.009105795
000210 ee 75 2e bc ee 78 42 bd 3b 59 dd bb 80 58 01 ba
       -0.010648234 -0.04747861 -0.006755022 -0.0004934147
000220 86 96 39 3c 17 64 ba ba d7 29 ae 97 1c 83 8c bc
       0.0113273915 -0.0014220503 -1.1255048e-24 -0.017152362
000230 90 73 05 00 1b 59 05 80 0d b7 bb ba fc 27 2b ba
       5.00633e-40 -4.91143e-40 -0.0014321521 -0.00065290905
000240 a1 47 8d 3c 04 58 05 00 61 a7 30 ba ef e6 a2 3b
       0.01724607 4.90752e-40 -0.00067388086 0.004971377
000250 ef e7 bf bb 26 51 42 bc f2 82 76 3b c6 f0 f6 34
       -0.005856506 -0.011860168 0.003761467 4.5996256e-07
000260 1f 03 08 37 5f 10 5a b9 f4 19 2f b9 51 af 86 bc
       8.106958e-06 -0.00020796199 -0.00016698969 -0.01644102
000270 61 6f 05 80 cd 4e 7d bc 07 cc 02 ba 72 5e 05 00
       -4.99133e-40 -0.015460682 -0.0004989509 4.93058e-40
000280 65 b7 a9 38 85 bb 6f ba 78 a7 d8 bb 96 fa 11 bc
       8.092708e-05 -0.0009145069 -0.0066117607 -0.008909842
000290 e7 f0 9d bb ae c4 87 ba 5c 05 26 3c 2f c4 30 bc
       -0.0048199776 -0.0010358298 0.010133114 -0.010788961
0002a0 c3 f9 e1 bc 5e d5 f6 a9 fb 58 f4 b2 a1 c1 51 af
       -0.027584916 -1.0961608e-13 -2.8445802e-08 -1.907723e-10
0002b0 2a 3a ce 3b 58 d9 b8 b7 9c 6f 05 80 f3 b8 46 bc
       0.006293555 -2.2035718e-05 -4.99215e-40 -0.012129056
0002c0 a0 96 cf b5 79 ff 99 ba e2 4f 5b bc f4 73 05 80
       -1.546654e-06 -0.001174911 -0.013385745 -5.00774e-40
0002d0 fe da a5 bc 1a 6f 05 80 7f d0 58 bb 5d 3b 1b bc
       -0.020246025 -4.99033e-40 -0.0033083258 -0.0094746025
0002e0 85 6a 05 80 02 aa 2b 3b 97 5b 68 bd 3a 3b 89 3c
       -4.9739e-40 0.0026193862 -0.056727972 0.016751874
0002f0 41 04 04 ba e2 32 93 bb 6c 7a 34 bd 26 8e 61 3c
       -0.0005036034 -0.0044921497 -0.044062063 0.013766801
000300 a3 dd 08 ba 67 62 05 00 bf 69 05 00 67 5b 05 00
       -0.0005221015 4.94478e-40 4.97112e-40 4.91966e-40
000310 8a ca a2 bb 10 3c 87 bc 0e c5 a5 bb c6 55 25 3c
       -0.004967992 -0.016508132 -0.005058891 0.010091251
000320 0a e1 02 3c 5c 1b 86 bc 6e 5a 05 00 4d 73 05 00
       0.007988224 -0.016370468 4.91618e-40 5.0054e-40
000330 08 eb ae bb 18 6d 7d 3b 89 e5 5e ba 26 67 62 3b
       -0.0053380765 0.0038669761 -0.00085028313 0.0034546345
000340 7b 0c 8b bc 2b 0c 01 39 6f c9 d6 31 59 52 2f bc
       -0.016973725 0.00012306932 6.25112e-09 -0.010700786
000350 c4 72 0c ba 52 97 57 3b 1c 15 c1 bc dd 9c 8c 3b
       -0.00053576776 0.003289659 -0.023569636 0.0042911605
000360 46 c0 e9 b9 58 6e 05 80 32 03 19 bc c4 cd 53 b9
       -0.00044584478 -4.98761e-40 -0.009339141 -0.00020199182
000370 c5 44 44 39 8b 6e 77 3b 76 69 05 00 4a 5e 05 00
       0.00018717635 0.0037755098 4.9701e-40 4.93002e-40
000380 22 0a 13 ba 44 3d 2a bc 9c 90 4d ba db 4e 56 ba
       -0.0005609115 -0.010390583 -0.0007841678 -0.00081752025
000390 07 71 cc bc 12 ec 98 bb ac a1 61 bc c6 9a 28 bb
       -0.02495624 -0.0046668136 -0.013771456 -0.0025727018
0003a0 09 d9 0f 3c c4 70 5f ba 42 f1 9a ba 63 20 28 bc
       0.008779773 -0.0008523578 -0.0011821168 -0.010261628
0003b0 a7 f9 21 ba 18 a9 0f bd fa 0e 2e bc df 71 05 00
       -0.00061788637 -0.03507337 -0.010623688 5.00027e-40
0003c0 fd 3b 40 bc 62 bd fd 39 cc ee 33 3a 58 e4 94 bc
       -0.011733052 0.00048397022 0.00068638916 -0.018175289
0003d0 07 10 4f bc 10 2a af 39 e5 4e 8d bc 02 51 0a bc
       -0.012638099 0.0003340994 -0.017249534 -0.008442165
0003e0 1f 8b 9d bb 8f ca 0e b9 e7 aa 00 3b c3 21 57 3b
       -0.0048078443 -0.00013617634 0.0019633116 0.003282652
0003f0 e3 e7 d5 bb 5f 1f 30 3a 1b 51 d3 bc e5 4f 7d 3b
       -0.006527887 0.0006718542 -0.02579551 0.0038652357

3.bias f4 [256]
000000 69 1c a3 b7 af c5 7f 3c ac ce 5e 81 39 05 0a 3e
       -1.9444344e-05 0.015611096 -4.092324e-38 0.13478555
000010 43 40 55 16 02 51 04 c0 35 c4 1a bf 3f e3 d8 c0
       1.722628e-25 -2.0674443 -0.6045564 -6.77774
000020 98 48 58 be 62 37 ba c0 3d 40 0d 3e 9d b9 93 34
       -0.21121442 -5.8192606 0.13794036 2.7515935e-07
000030 0d 77 4b 3c e1 9b 7a 3d be e2 3a b8 3c 6e 05 00
       0.012418521 0.061183814 -4.4557026e-05 4.98722e-40
000040 74 a3 3a be 1f 27 14 bb 73 9f d1 3a cb 21 5d b8
       -0.18226415 -0.0022606326 0.0015992954 -5.2721978e-05
000050 29 3b 0b 3f 87 31 14 c0 fb 76 09 41 79 f8 ea ba
       0.54387146 -2.315523 8.591548 -0.0017926834
000060 84 28 23 40 3c 1d 6a bd b6 41 de 1c ed 6c 68 c0
       2.5493479 -0.057156786 1.4707714e-21 -3.6316483
000070 29 52 9d aa fb 6c 5f 3f f5 87 c6 bd 4f 0f 09 39
       -2.7945812e-13 0.87275666 -0.096939005 0.00013071041
000080 07 3b 32 b5 6b 6f 05 00 44 2b b3 c0 f4 c7 bc bc
       -6.6396063e-07 4.99147e-40 -5.5990314 -0.023044564
000090 ba 6c 05 80 03 0d 91 40 64 81 05 80 e1 a0 4a ba
       -4.98181e-40 4.5328383 -5.05594e-40 -0.00077296613
0000a0 e5 62 05 00 a9 5e d2 bf 6a 08 f4 bf cc ac 66 c0
       4.94654e-40 -1.6435138 -1.9065068 -3.6042967
0000b0 03 18 ac 3e 1a 2a 9b c0 7a 60 05 00 ba 13 4a b8
       0.3361207 -4.8488894 4.93787e-40 -4.8178925e-05
0000c0 b3 c5 37 40 d6 6d c9 be 10 2f 1d 3d 0d 65 05 00
       2.8714416 -0.3934161 0.03837496 4.95428e-40
0000d0 ef 11 1b be f8 e9 8b 40 f3 c4 8a 40 db 7c 22 bf
       -0.1514356 4.3723106 4.3365417 -0.63471764
0000e0 66 d1 93 3f 4e 5f 05 00 66 9b 4e be 10 1a 18 3f
       1.1548278 4.93366e-40 -0.20176467 0.5941477
0000f0 e6 b3 13 0a 43 93 d0 c0 0b 95 a5 bc dc 31 0f 41
       7.111628e-33 -6.5179763 -0.02021267 8.949673
000100 e2 c1 5d 40 03 8b 45 bd f5 b4 84 3f 76 37 70 9b
       3.4649587 -0.048228275 1.0367724 -1.9870255e-22
000110 f1 14 f6 40 d9 86 1e 97 d2 1b 42 c0 86 68 05 00
       7.6900563 -5.1222755e-25 -3.032948 4.96673e-40
000120 ff 55 c0 bf df 69 05 00 63 ff 72 40 9d ab 17 b8
       -1.5026244 4.97157e-40 3.7968376 -3.6161033e-05
000130 3e 09 b7 be 65 84 c5 40 58 c4 1c 3c ab 41 a1 bd
       -0.3574924 6.1724114 0.009568296 -0.07873853
000140 09 e4 52 3c 20 cc f8 bc 12 6a 05 00 31 d3 ad 3d
       0.012871751 -0.030370772 4.97228e-40 0.08487547
000150 4e cb e3 38 14 74 05 00 99 36 1d bc 19 bc 45 bd
       0.00010862072 5.00818e-40 -0.009595537 -0.048275087
000160 ce ce 32 1d 42 58 5a 8f d9 b1 8b 8a 2c 37 04 c0
       2.366502e-21 -1.0765228e-29 -1.3452112e-32 -2.0658674
000170 7b 8b a7 ba 89 e0 e5 bc ca 82 2e b9 a8 ab 64 bc
       -0.0012782657 -0.028061168 -0.00016642656 -0.013956942
000180 86 ad ad 0b 47 4f bd c0 1a 0d 21 bd 5e 6f 05 00
       6.6898265e-32 -5.9159274 -0.039319135 4.99129e-40
000190 2e 3b 5f c0 43 fa 85 40 fd 68 05 00 29 f4 2d be
       -3.487987 4.1867995 4.9684e-40 -0.16987671
0001a0 c6 26 48 3b f0 50 9b c0 0d d5 57 be a8 73 05 00
       0.003054069 -4.85363 -0.21077366 5.00667e-40
0001b0 75 7b c9 3c b9 ed 3c be ed a8 ab b9 76 64 05 00
       0.024595002 -0.18450059 -0.0003274152 4.95216e-40
0001c0 64 df b0 40 32 eb 77 bb 82 b1 bf b8 f9 c8 68 bd
       5.5272694 -0.0037829396 -9.140653e-05 -0.056832287
0001d0 0c 70 48 b5 54 ed b8 c0 b5 5c 05 80 b5 e7 9f bc
       -7.4668856e-07 -5.7789707 -4.92434e-40 -0.019519666
0001e0 5c b1 1c c0 1b 1d a4 b5 27 85 1b 40 a0 93 b7 c0
       -2.4483252 -1.2227423e-06 2.430002 -5.7367706
0001f0 dd 6e 05 00 54 55 b7 3f af 95 b3 c0 fb 4b 66 bd
       4.98948e-40 1.4322915 -5.612022 -0.056224804
000200 24 5c 05 00 d1 83 0f 80 b4 7b cb c0 0c d4 95 40
       4.92231e-40 -1.424819e-39 -6.3588505 4.6821346
000210 30 6c 05 00 81 8c bd c0 3b d2 ef 01 c3 66 05 80
       4.97988e-40 -5.9234014 8.80964e-38 -4.96041e-40
000220 55 09 89 bd 4c 45 1b 9e 60 93 05 00 74 b1 0f bb
       -0.06691233 -8.219962e-21 5.12046e-40 -0.0021925839
000230 5a 6c 05 00 a9 29 92 c0 2d b8 65 bf 38 8e 05 00
       4.98047e-40 -4.5675855 -0.89734155 5.10196e-40
000240 4b 88 05 80 da 71 05 00 9c df 65 c0 b4 2e da bf
       -5.0807e-40 5.0002e-40 -3.591773 -1.7045503
000250 be a9 7e c0 0f 86 84 3d 30 7c 12 bf 67 bd 91 bf
       -3.9791102 0.06470882 -0.57220745 -1.1385926
000260 07 c8 9e bd 6d 1e 86 bc 13 93 2e 3f 79 33 af c0
       -0.07752996 -0.01637193 0.6819317 -5.4750333
000270 52 74 4b b9 54 c7 85 3e 37 70 05 80 c1 b4 eb 3d
       -0.00019402921 0.26128638 -4.99433e-40 0.115090854
000280 31 65 05 00 eb eb 83 b8 24 66 05 00 d9 92 18 3f
       4.95478e-40 -6.29051e-05 4.95819e-40 0.5959907
000290 03 8e 71 3f b4 23 15 be f0 b1 69 3d 70 82 7f 40
       0.9435732 -0.14564401 0.05705446 3.9923363
0002a0 0e 64 19 be 00 9d 70 aa 7b 39 4e 2d 1c 5d 6f 3c
       -0.14979574 -2.1370752e-13 1.17225075e-11 0.014609601
0002b0 03 35 0d 41 3f 22 16 be 9f eb 3e 40 59 7d 2b 40
       8.825442 -0.14661501 2.9831312 2.6795256
0002c0 25 76 36 bd 06 4c ba 8e 72 3f d2 bf 46 8e be bf
       -0.044546265 -4.5925748e-30 -1.6425612 -1.4887168
0002d0 7a be d8 bf 4a 5c 05 80 02 e6 f2 3f b2 40 d3 ba
       -1.6933129 -4.92285e-40 1.8976443 -0.0016117303
0002e0 9a 44 ce 02 b3 b3 be 3f 91 d5 63 40 fd 8c 3f bd
       3.0308355e-37 1.489859 3.55991 -0.046765316
0002f0 35 71 05 00 86 30 2b b5 8a 79 05 80 a4 fc 4a bf
       4.99789e-40 -6.3773075e-07 -5.02777e-40 -0.7929175
000300 97 9b af be a5 3f 3c 3c 5b c4 3f a9 20 93 05 80
       -0.34298393 0.011489783 -4.258083e-14 -5.11956e-40
000310 8f 65 05 00 cf ef 8c bd b8 a0 c5 3d 6e 77 2f b6
       4.9561e-40 -0.06881677 0.09649795 -2.614655e-06
000320 b4 63 05 80 5a 6a ac 3f 0a 71 56 c0 19 af d6 c0
       -4.94944e-40 1.3469956 -3.3506494 -6.708874
000330 88 f6 8d 3f 98 19 27 c0 d2 88 2b c0 17 2d 1f 80
       1.109086 -2.610937 -2.6802258 -2.863076e-39
000340 a4 6c 05 00 fa 32 55 3e 75 dd 0d 3f 5f 45 d2 bf
       4.9815e-40 0.20820227 0.5541604 -1.642742
000350 d6 ca 43 3d 52 4e f3 bd c5 6d 05 00 39 cf 45 bd
       0.04780086 -0.11880173 4.98555e-40 -0.048293326
000360 e7 3f 91 bc f7 88 2b b6 90 5e 05 00 bc cb 00 11
       -0.017730666 -2.556071e-06 4.931e-40 1.01602e-28
000370 a4 fe 51 3f 01 68 05 00 0b e5 7c b6 9f f2 6a bd
       0.82029176 4.96487e-40 -3.7684247e-06 -0.057360288
000380 1a fb b1 b8 59 da b3 b7 b7 69 dd bb 48 35 b0 3c
       -8.486789e-05 -2.1440139e-05 -0.006756987 0.021509781
000390 5e 70 05 80 54 eb 15 40 61 f0 2f 3c 5b ed b9 3f
       -4.99487e-40 2.3424883 0.010738463 1.452556
0003a0 cf 7b 58 bc 72 b2 06 80 49 8f fd be 63 f3 c8 b0
       -0.013213112 -6.15027e-40 -0.4952338 -1.462109e-09
0003b0 f2 90 da 3e 94 b2 24 be dc 76 05 80 e6 e5 74 40
       0.4268871 -0.16083747 -5.01816e-40 3.826532
0003c0 45 13 9b be d9 69 82 3c 0f 5c 9b c0 b6 7c 80 bf
       -0.3028814 0.015919613 -4.8549876 -1.0038059
0003d0 75 12 d4 bf f5 3e f8 b9 fd a7 65 c0 1a 8f 92 3f
       -1.6568133 -0.00047349153 -3.5883782 1.1449921
0003e0 3c 02 24 bd c7 1e f0 bd 21 67 89 bd d8 e8 7a bf
       -0.040041193 -0.1172462 -0.067091234 -0.9801154
0003f0 e1 73 05 00 cc a2 ca 3f ee f4 10 bc 4d af c9 c0
       5.00747e-40 1.5830932 -0.008847458 -6.302649

6.weight f4 [128, 256]
000000 08 c3 32 bb 47 a1 19 bc 3c bc 06 80 d7 6c ac bc
       -0.0027276892 -0.00937683 -6.18539e-40 -0.021047993
000010 54 83 05 00 67 b7 59 bd 87 c5 e2 3e 25 0b 5e 3e
       5.06289e-40 -0.05315342 0.44291326 0.21683939
000020 84 cc 53 ba 2d 14 2c 40 11 92 32 3e 3e 2f f3 3a
       -0.00080794864 2.6887314 0.17438532 0.0018553508
000030 b6 fd 38 3a 5a 35 cd bb fd a6 a8 bc 43 7b 00 bc
       0.0007056849 -0.0062624635 -0.020587439 -0.007841888
000040 1f 71 7e 3c 3b 21 95 3b 33 02 e6 bb 4a bd a3 bc
       0.0155299 0.0045510805 -0.007019305 -0.019987721
000050 5f a1 fa 3c e8 a2 b6 3f ab 48 9d 3e 83 b3 c9 3b
       0.030594526 1.4268465 0.30719504 0.0061554327
000060 05 a9 b5 3d 43 b9 ce 3b aa 14 f0 b9 fd 40 0e 3e
       0.088701285 0.006308706 -0.00045791763 0.13891979
000070 a2 31 cf 3b e2 00 47 3f d2 b8 dc 3b 66 30 9c bc
       0.0063230554 0.7773572 0.0067358995 -0.019066047
000080 ea d5 92 bc b6 72 05 80 ed cd cf 3d a7 5f 4b 3c
       -0.017924268 -5.00328e-40 0.10146699 0.012412942
000090 18 53 cb bb dd 03 19 3d ce a9 05 80 c9 a7 20 bc
       -0.006204974 0.0373572 -5.20092e-40 -0.009805628
0000a0 6d 3b 2b bc 76 2b 5e 3d 65 1e 2a be 89 43 c7 3d
       -0.01045118 0.054240666 -0.16613157 0.09729678
0000b0 62 03 b6 bc 89 23 56 3e 48 7c 71 bc ea c1 e7 bb
       -0.02221841 0.20911993 -0.014739104 -0.007072677
0000c0 fc 0b 2d 3c 55 f1 de 39 5d 58 cb bb 50 a2 3f b9
       0.010561939 0.00042522946 -0.006205602 -0.00018275646
0000d0 24 9d 84 bd 41 c9 6a 3d a6 d4 06 be d3 bf 77 bd
       -0.06475285 0.057320837 -0.13167056 -0.060485672
0000e0 74 8b 73 bd e0 0c c5 3a 21 f0 ae bb c0 04 f3 3d
       -0.059459165 0.0015033744 -0.005338684 0.1186614
0000f0 28 e0 5f bd ac d3 ee 3d 26 57 18 bd bc f4 5f 3c
       -0.05465713 0.11661467 -0.037192486 0.013669189
000100 7c 80 06 be 25 41 44 b8 4c cc bc bc ff 7d 1c b3
       -0.1313495 -4.6790712e-05 -0.023046635 -3.6436173e-08
000110 c9 26 a1 3d 0f 60 ac b8 e0 8c 11 bd 36 7a 05 00
       0.07868726 -8.2194914e-05 -0.03553474 5.03019e-40
000120 b8 7b d8 3f ab 5f 05 80 68 6c 36 3d d7 06 cb 3b
       1.6912756 -4.93497e-40 0.044536978 0.0061958837
000130 b2 0c 51 bd 0a 4e 0c 3e e4 77 aa be 50 f9 82 3c
       -0.051037498 0.13701645 -0.33294594 0.015988022
000140 92 49 34 3b 5e a7 01 b9 ba e6 93 bb ad 43 59 bd
       0.0027509672 -0.00012364748 -0.0045135887 -0.053043056
000150 b0 f0 27 3d 46 5b 05 00 c9 da 2c 3c a7 6d b7 bb
       0.04100102 4.9192e-40 0.010550209 -0.0055977884
000160 d0 03 8a b6 3b 6e 81 bb fa 7b 05 80 5d 1d 18 be
       -4.1131643e-06 -0.003949908 -5.03652e-40 -0.14854951
000170 6e 2f 94 bb 46 ea 8c bb f6 df b7 34 31 64 6e bb
       -0.0045222556 -0.0043003885 3.424936e-07 -0.0036375637
000180 0d 7c 05 80 1d be c8 3d 0d 05 17 3d 1c 74 05 00
       -5.03679e-40 0.09801886 0.03687005 5.0083e-40
000190 47 7b 36 be d8 98 17 3d ea 5c 05 80 1c f4 9d 3c
       -0.17820464 0.037010998 -4.92509e-40 0.01928144
0001a0 4f 93 b0 bb c8 13 e1 3e 4b c4 66 3d 45 5c 05 00
       -0.0053886543 0.43960404 0.056339543 4.92278e-40
0001b0 6c ed 2f 3c 2e 5c d3 ba ab be 65 3c ca 11 a3 3a
       0.010737758 -0.0016125494 0.01402251 0.0012441215
0001c0 cf a9 a6 3b 67 84 fe b9 6b 83 f5 bb 2d 9b d7 3b
       0.0050861607 -0.00048545303 -0.007492473 0.0065797777
0001d0 dc 91 f6 ba 0d 2b 42 3e c0 dd ab 3b f2 51 e8 3b
       -0.001881178 0.18961735 0.0052449405 0.007089847
0001e0 d1 e1 17 be 3a 7d 10 bc de c2 f4 3f 04 8f 08 3e
       -0.14832236 -0.008818919 1.9121969 0.13335806
0001f0 31 96 05 80 d5 c5 01 bf c8 a5 25 3e dc c7 f4 3e
       -5.13056e-40 -0.5069249 0.16176522 0.4780873
000200 2e ab 05 00 f3 72 c3 bb 6b bb a5 3d b1 fc e8 3d
       5.20585e-40 -0.0059646307 0.08092388 0.11376322
000210 53 5d 05 00 d6 67 dd 3d bc 4b 00 bc 89 6e 05 80
       4.92656e-40 0.10810821 -0.0078305565 -4.9883e-40
000220 54 01 23 3c 08 1d 94 39 61 6a 05 80 f0 ec d9 3b
       0.009949047 0.0002825039 -4.97339e-40 0.0066505596
000230 fb 61 05 80 47 0a a4 3d 56 45 d3 bd e6 8d 6a bc
       -4.94326e-40 0.08009773 -0.10315959 -0.014316058
000240 e9 9a da 3b e3 f2 a9 b9 75 ca 11 3e a7 b2 d1 bc
       0.0066712988 -0.00032415157 0.14237387 -0.025597883
000250 31 77 87 3d 43 6c b0 bb d8 e2 ba bd 7c 41 83 bd
       0.06614531 -0.0053839996 -0.09125298 -0.064089745
000260 76 1d 55 bc 8c 2c 31 3b 51 b9 88 3c 00 44 3a 3e
       -0.013007512 0.0027034609 0.016689928 0.18190002
000270 6e 08 6c bb 5a a2 0c 3b e5 77 05 00 34 1d 9d bd
       -0.0036015767 0.0021459074 5.02188e-40 -0.07671586
000280 a6 56 e1 ba 67 ef f5 bb 84 0d 3b 80 de 9b 2f bc
       -0.0017191961 -0.0075053456 -5.423143e-39 -0.010718314
000290 c2 11 46 3f d8 e3 71 ba a9 38 13 3b 2f 5b ba 3d
       0.77370846 -0.0009227372 0.0022464192 0.09099423
0002a0 45 a1 f0 3d 9a 69 05 00 64 61 c6 bb aa 94 d3 b9
       0.1174951 4.9706e-40 -0.0060540903 -0.0004035582
0002b0 24 90 c2 3d 4b 9c 9c bb f3 18 c5 3d a5 54 eb be
       0.09500149 -0.0047793738 0.09623899 -0.45963016
0002c0 7a 25 8e b9 f9 6f 05 00 09 0f 9b bc 81 a3 49 be
       -0.00027112273 4.99346e-40 -0.018928068 -0.19691278
0002d0 7c a0 26 40 c9 3c 82 3c 5f 59 ec 3f 22 91 50 bc
       2.6035452 0.015898125 1.8464774 -0.012729915
0002e0 70 2d 8b 3b e0 23 05 be 96 a2 33 be f8 c2 d0 3b
       0.00424736 -0.13001966 -0.1754249 0.0063708983
0002f0 09 b7 05 80 1f e8 55 bc 52 61 05 00 3d 2b 08 3c
       -5.24838e-40 -0.01305583 4.9409e-40 0.00831109
000300 a3 58 7c bc b6 24 3c bc 10 1f ff 83 6e 9d 05 80
       -0.015401992 -0.011483362 -1.4994685e-36 -5.15653e-40
000310 c7 75 05 00 97 5b f2 bb fc be f0 3b 3c 35 10 3c
       5.01428e-40 -0.0073961723 0.007346986 0.008801755
000320 f5 6f 05 00 41 c8 06 be f5 e6 7b be 46 28 76 3e
       4.9934e-40 -0.13162328 -0.24599822 0.240388
000330 61 0f 5c 3d 38 b5 06 40 d6 07 1f be d0 25 9f bc
       0.053725604 2.1048107 -0.15530333 -0.01942721
000340 cf 65 05 00 f4 8e 09 3e cf 6c 61 3f ac 72 18 be
       4.957e-40 0.13433439 0.88056654 -0.14887494
000350 21 a4 3d ba 57 2d 2c 3b fd 66 05 80 4f 2a 29 bb
       -0.0007234235 0.0026272142 -4.96123e-40 -0.0025812571
000360 13 77 0a 3c 95 e1 db bb 32 71 52 bc 2c 76 05 00
       0.008451241 -0.006710241 -0.012844371 5.0157e-40
000370 1f a9 f2 3c 15 6f 05 00 2e 47 10 3c e9 c5 6c bb
       0.029621659 4.99026e-40 0.008806033 -0.0036128706
000380 cb 84 2e bb 60 21 2f bc 8e 97 81 bc bc 48 0a bc
       -0.0026629444 -0.01068911 -0.015819337 -0.008440193
000390 a4 2b 32 ba bf 7e 2b 3e 83 ae 01 bc ec ff fe bd
       -0.0006796664 0.16747569 -0.007915142 -0.12451157
0003a0 fd 5c d2 bb 90 d8 5f 33 89 6b b6 3f 5d ac 32 bc
       -0.0064197765 5.2118196e-08 1.4251567 -0.010905352
0003b0 e3 b9 61 bc db 06 ba 39 df 5a 05 00 a4 7e 14 3e
       -0.013777229 0.00035481792 4.91776e-40 0.14501435
0003c0 93 e1 6a 3c 0d c5 58 3b c3 69 1a 3e d3 49 40 3e
       0.014336008 0.0033076436 0.15079407 0.18778162
0003d0 c1 f9 f1 bc d1 92 c0 bc 46 54 69 bd e0 5d ab bd
       -0.029538037 -0.023507508 -0.056965135 -0.083675146
0003e0 9d 06 1a 3b 9c 43 6c bc 68 2b f7 3a 75 80 cc bd
       0.0023502477 -0.014420416 0.001885754 -0.09985439
0003f0 28 45 e0 29 88 57 62 3f 43 04 3e bc d2 7f 6b 3e
       9.959595e-14 0.8841481 -0.011597696 0.22997978

6.bias f4 [128]
000000 10 e7 83 40 75 47 11 c0 5e 5c d0 3f 21 6a 2f aa
       4.121956 -2.2699864 1.6278188 -1.5579943e-13
000010 1f 59 05 80 6b dd 03 bb 47 6f dc 3f 77 1e 59 be
       -4.91148e-40 -0.002012099 1.7221459 -0.21203028
000020 94 30 03 3f a5 10 b9 bb a1 9b aa ba bd 5a 05 00
       0.51246 -0.005647736 -0.0013016352 4.91728e-40
000030 b7 5b 55 3f e4 d5 89 c0 ed a3 08 3d b3 cf 9b bb
       0.8334307 -4.3073597 0.033359457 -0.0047549843
000040 e3 1b 87 9f c1 46 55 3b e1 3d 2e c0 e2 27 1b c0
       -5.722086e-20 0.0032543393 -2.7225268 -2.4243093
000050 7f 37 b6 40 e0 34 0e c0 aa 98 3b 3b 55 d5 8f 40
       5.6942744 -2.2219772 0.002862493 4.4947915
000060 fb 1d a8 c0 b9 c0 c0 40 07 fe 73 c0 c9 80 9e c0
       -5.2536597 6.0235257 -3.8123796 -4.953221
000070 da 5d b5 bc 1e 47 9e 40 d1 6b 35 3e 7e 68 bd 8d
       -0.022139478 4.9461813 0.1771691 -1.167318e-30
000080 58 47 89 8b bc 1e 5b be 80 15 53 40 08 80 ba ba
       -5.2877827e-32 -0.21398443 3.2981873 -0.001422883
000090 fc 1b 0b be 7c 24 08 b9 9a e2 b6 40 7c 04 88 c0
       -0.13584894 -0.00012983562 5.7151613 -4.2505474
0000a0 5a 90 89 c0 54 f0 24 c0 ef d9 7a c0 4d 8d 5f 40
       -4.298871 -2.5771685 -3.9195516 3.4929993
0000b0 30 04 36 40 50 99 e3 be a4 6e 75 3f 39 62 79 40
       2.8440056 -0.44452906 0.9587195 3.89662
0000c0 fe de 39 c0 bc 5a c0 40 98 29 60 3e ea c4 82 b9
       -2.9042354 6.011076 0.21890867 -0.00024942245
0000d0 fa a5 2f bf a1 8a 49 40 fb 0d 60 bf 86 77 83 c0
       -0.68612635 3.1490862 -0.8752133 -4.1083403
0000e0 0e 94 05 00 46 7a 57 c0 62 b0 82 c0 b1 e7 6a 40
       5.1229e-40 -3.366838 -4.084031 3.6703913
0000f0 7f a1 87 c0 62 5d a8 c0 0d 08 93 c0 07 73 7b ba
       -4.238464 -5.2613993 -4.5947328 -0.00095920305
000100 d1 a5 72 40 b7 e3 49 c0 05 71 a7 be a1 b2 77 ba
       3.7913706 -3.1545236 -0.32703415 -0.000944892
000110 49 58 05 00 a4 30 25 3c 3d 0a 40 ba 9a 52 fc be
       4.90848e-40 0.010082398 -0.00073257444 -0.4928177
000120 0c 10 b6 bf 47 d3 92 c0 52 bc 6c bb 5a 9d 71 bc
       -1.4223647 -4.5882907 -0.003612299 -0.014746988
000130 07 9f a9 bf e6 eb bb 3d 29 d4 80 27 51 e5 8b c0
       -1.3251656 0.091758534 3.575716e-15 -4.3717427
000140 55 0c a6 40 70 6e 05 00 b4 b5 9f 3f d3 8e ba bf
       5.1890054 4.98795e-40 1.2477326 -1.4574836
000150 c5 c7 99 c0 17 f8 cb 40 78 35 8e c0 01 84 d4 3e
       -4.805636 6.3740344 -4.444027 0.4150696
000160 71 2f 8f c0 f0 8b 62 b9 1b 05 94 40 dc b3 8b c0
       -4.474541 -0.0002160517 4.625623 -4.3657055
000170 3f 5b 04 00 4f 65 90 40 58 fd 92 c0 7c 88 c3 bc
       4.00075e-40 4.512367 -4.5934258 -0.023868792
000180 f1 71 8a c0 9c c3 3c 8e 3c c0 ec ba c0 8f 71 38
       -4.326409 -2.3266972e-30 -0.0018062661 5.7592755e-05
000190 1c 4b 86 3c 3d cc 58 40 0f fb 04 bf d4 e3 a2 c0
       0.016393237 3.3874657 -0.51945585 -5.090311
0001a0 3a c2 95 c0 cf 35 a2 3f 13 35 27 96 8f 76 ac bf
       -4.6799593 1.2672671 -1.35069e-25 -1.3473681
0001b0 54 fb 98 3f 5a 24 84 bf f8 eb 8b c0 bc 6f 53 40
       1.1951699 -1.0323594 -4.372555 3.3036947
0001c0 b8 b0 05 3d c4 60 9a b0 86 2a 32 3e 49 64 0b 3c
       0.032639235 -1.1232477e-09 0.17399034 0.008507797
0001d0 96 88 23 40 ce 43 4b bc 04 ae 47 c0 7a a9 05 00
       2.5552115 -0.012406303 -3.119996 5.19974e-40
0001e0 6f a0 9f bf c3 f6 81 c0 9c 41 15 3b e4 59 6c b3
       -1.2470835 -4.0613723 0.0022774702 -5.5029787e-08
0001f0 eb 7b 93 c0 30 48 87 3f 09 9f db 3b 33 07 47 40
       -4.6088767 1.0568905 0.006702308 3.1098144

9.weight f4 [1, 128]
000000 00 52 14 ba 4e ca 9f ba e1 a8 53 b9 d5 ef a7 b7
       -0.0005657971 -0.0012191029 -0.0002018544 -2.0019632e-05
000010 08 9c 77 b7 ae f2 49 b7 56 0e cc b8 ca 87 3d b7
       -1.4758676e-05 -1.2037037e-05 -9.730148e-05 -1.1296894e-05
000020 51 40 86 39 2f 7f 98 b7 50 e6 85 37 34 fc 89 b7
       0.0002560639 -1.8179036e-05 1.5962083e-05 -1.6449114e-05
000030 41 82 13 3f c7 22 9c ba 24 89 3f 38 9b 52 a6 b5
       0.57620627 -0.001191222 4.566567e-05 -1.2392005e-06
000040 3e 65 7a b7 f4 13 8d b7 6c 16 a0 ba 56 5f 9f 3f
       -1.49247335e-05 -1.6817801e-05 -0.0012213713 1.2450969
000050 1d bb 9e ba c9 74 8d ba d3 45 d0 b6 8e eb 43 ba
       -0.0012110207 -0.0010792251 -6.2070117e-06 -0.000747376
000060 ac fc 4e 38 73 94 14 ba 53 24 8b 3a e7 73 19 ba
       4.9349546e-05 -0.00056678726 0.0010615684 -0.00058537576
000070 6b 81 20 b7 59 c4 87 ba 04 ce 88 39 32 34 9d 37
       -9.566876e-06 -0.0010358199 0.00026093435 1.8740164e-05
000080 42 cc 74 b6 55 46 99 ba 10 e3 b4 b9 a5 da 98 37
       -3.6477727e-06 -0.0011693934 -0.0003450145 1.8221626e-05
000090 ac f0 3b b8 44 43 30 35 37 ad 55 3e da 85 fe 38
       -4.4808417e-05 6.5662994e-07 0.20866857 0.000121365956
0000a0 6b 0d 21 3b a7 10 92 ba af 03 99 ba a5 77 8f ba
       0.0024574648 -0.0011143879 -0.0011674071 -0.0010945691
0000b0 62 d4 ef b8 7f 46 9d ba ef f4 90 b9 e3 5b 40 3f
       -0.000114359675 -0.0011999159 -0.0002764831 0.7514021
0000c0 a9 e4 9a ba 54 ab 9f ba 53 87 f3 b8 1a 17 69 b7
       -0.0011817414 -0.0012181797 -0.00011612349 -1.3893261e-05
0000d0 05 07 6d 3f c4 a8 10 ba 77 81 8b 39 1f 04 a2 39
       0.92588836 -0.0005518312 0.00026608605 0.00030902118
0000e0 86 92 70 37 e6 ec 4a ba a7 e1 50 ba ce f7 cc 3e
       1.433923e-05 -0.0007740989 -0.0007968195 0.4003281
0000f0 b2 04 94 ba 55 39 f2 37 7d 52 fb 38 9a cb 8b 36
       -0.0011292903 2.8875345e-05 0.00011983977 4.166225e-06
000100 52 c6 33 b9 cc 18 fa b9 53 be 95 ba c5 7c ec 35
       -0.0001714465 -0.0004770219 -0.0011424519 1.7619683e-06
000110 24 50 9c b6 77 58 b2 37 f6 cd 52 b5 68 62 57 ba
       -4.658492e-06 2.1260448e-05 -7.853081e-07 -0.0008216263
000120 09 e1 99 ba 02 2c 0b ba 7d 69 71 38 f0 71 25 b8
       -0.0011740039 -0.0005308987 5.755712e-05 -3.9445178e-05
000130 de 99 88 ba d1 29 7c b7 86 eb 14 b9 5e 80 b8 3a
       -0.0010421833 -1.5030107e-05 -0.00014202119 0.0014076342
000140 94 8f 8e ba fd d0 a2 37 97 92 cf 38 e7 17 8c ba
       -0.001087653 1.9409223e-05 9.897834e-05 -0.0010688276
000150 31 ae 3f 3a 90 2f 0a ba 24 5a 5e ba 60 0b a7 38
       0.00073120283 -0.00052713696 -0.000848206 7.965299e-05
000160 78 9c 9e ba de ef 1f 36 25 d7 8e ba 11 8f 57 ba
       -0.0012101075 2.3832467e-06 -0.0010897858 -0.00082229177
000170 bc 91 19 b7 8d b7 da b9 71 29 9c ba 30 6c bc b6
       -9.153442e-06 -0.00041716956 -0.0011914206 -5.6154313e-06
000180 e3 7c 9f ba 4d c0 d8 b7 94 f7 07 35 5c ce 3e 35
       -0.0012167956 -2.5838754e-05 5.065169e-07 7.108081e-07
000190 ed 18 58 37 de 4b b1 b6 55 fb 9f ba bc 8a 02 3b
       1.2880407e-05 -5.283843e-06 -0.001220564 0.0019919118
0001a0 f7 63 7f ba 5d ee 27 3e ee 9c 11 b9 0e 9f 00 3f
       -0.0009742374 0.16399522 -0.00013886738 0.502427
0001b0 3b 26 5b b6 47 25 34 3e ae d5 9e ba 6d 00 6b ba
       -3.2655796e-06 0.17592345 -0.0012118125 -0.0008964602
0001c0 34 a3 19 b7 12 fd 90 37 ef 10 ea b7 bf 74 1d 37
       -9.157509e-06 1.7283983e-05 -2.7902859e-05 9.385111e-06
0001d0 a6 a3 25 ba e1 8b 80 39 03 c1 e1 3a 7d d6 3a 36
       -0.0006318636 0.0002451828 0.001722366 2.7841008e-06
0001e0 0b 43 92 ba 61 8c 9c ba 98 69 30 b6 8c 59 82 37
       -0.0011158896 -0.0011943692 -2.6287507e-06 1.5538906e-05
0001f0 b1 6b 8e ba 84 3d c5 3e c5 70 bb b6 cc 77 85 ba
       -0.0010865835 0.38523495 -5.5861624e-06 -0.0010182797

exp_avg f4 [1, 128]
000000 8e 3e f7 31 4f 12 5f b2 b3 3e 30 b2 23 29 b5 af
       7.1957578e-09 -1.2984471e-08 -1.02588045e-08 -3.2952938e-10
000010 91 38 d2 2d 92 42 8f 2e 7a ca 7b 30 45 22 22 af
       2.3899356e-11 6.5147124e-11 9.1601005e-10 -1.4745989e-10
000020 9c 2c b8 30 5e d4 7f 2d e3 40 6f ad 92 8e 5e 2e
       1.3400441e-09 1.4542227e-11 -1.3599985e-11 5.0603584e-11
000030 36 95 25 c1 e3 9b 75 b2 2d ef 13 30 e3 fb 6f b0
       -10.348928 -1.42963215e-08 5.381818e-10 -8.7305646e-10
000040 6f 34 27 2e f2 f1 8b ae ed 59 57 b2 c4 26 5b 37
       3.8017974e-11 -6.363966e-11 -1.2535094e-08 1.3062443e-05
000050 69 72 39 b2 51 f9 84 b2 d6 57 69 ad 1e 1f 7e b2
       -1.0794431e-08 -1.5480198e-08 -1.326402e-11 -1.4791821e-08
000060 c2 51 a5 32 f5 cc 69 b2 7c 9f 1e 33 7b 00 e9 31
       1.9245707e-08 -1.3608987e-08 3.6932292e-08 6.781247e-09
000070 f0 5e 1d 2b 33 e2 85 b2 ee 68 90 2f 55 fe 05 2e
       5.5909357e-13 -1.5586101e-08 2.6268004e-10 3.046659e-11
000080 c2 18 b3 ae 11 71 12 b2 1c 34 49 b2 01 7a 12 2e
       -8.1443755e-11 -8.524027e-09 -1.1711588e-08 3.3304918e-11
000090 5a 06 0a af e6 5b 3e ac 24 83 b0 b7 37 b2 b0 32
       -1.2553283e-10 -2.7051638e-12 -2.1041902e-05 2.057014e-08
0000a0 7c de 7e 33 b7 72 83 b2 ea fa 10 b2 ca 69 84 b2
       5.9341332e-08 -1.5302573e-08 -8.438954e-09 -1.541493e-08
0000b0 93 fe 8a 32 d9 79 2c b2 02 a2 3d b2 b9 22 da c0
       1.6181081e-08 -1.0039423e-08 -1.1038084e-08 -6.8167386
0000c0 21 06 1c b2 d9 83 45 b2 22 fc 3f 30 31 a4 0c ad
       -9.081789e-09 -1.1496888e-08 6.98437e-10 -7.9945365e-12
0000d0 0c cf 24 37 f7 d8 67 b2 74 95 2f 30 bf d6 cd 32
       9.823369e-06 -1.3495302e-08 6.3877015e-10 2.3962796e-08
0000e0 91 e2 77 2c c7 15 34 31 33 f4 0f 31 66 5e 4b c1
       3.522658e-12 2.6205826e-09 2.094805e-09 -12.7105465
0000f0 b2 54 ef b1 45 10 a2 32 cd 74 b0 32 cf 91 ba 2d
       -6.965444e-09 1.886668e-08 2.0542211e-08 2.1210504e-11
000100 03 a5 81 32 52 5d 1b 32 b9 77 81 b2 ab dc 22 ad
       1.5092615e-08 9.043406e-09 -1.507202e-08 -9.257632e-12
000110 ea 25 c0 2d 46 ce b8 2c cc b4 98 ac 9e 34 82 b2
       2.184471e-11 5.2524955e-12 -4.3401723e-12 -1.515792e-08
000120 f2 c2 7b b2 f3 33 08 32 03 e3 1a b0 4e 72 2f af
       -1.4654448e-08 7.928054e-09 -5.6347477e-10 -1.5956766e-10
000130 a3 cd 85 b2 4f bb 1e af f2 05 3b b0 e0 2a 37 33
       -1.557675e-08 -1.4436562e-10 -6.803865e-10 4.2647002e-08
000140 22 af 84 b2 2d d0 e6 2d 97 4a 55 2f 75 46 85 b2
       -1.5446464e-08 2.6240421e-11 1.9398737e-10 -1.5515278e-08
000150 c3 9f 06 33 7f 8a 64 b2 6e de 71 30 56 f7 c5 af
       3.134461e-08 -1.3302837e-08 8.799138e-10 -3.6009834e-10
000160 f2 60 6a b2 9c 4d ce ad a3 b5 c1 b1 93 c8 cd 30
       -1.36426355e-08 -2.3453954e-11 -5.637689e-09 1.497272e-09
000170 5c 3e 3e 2d 29 a3 54 b2 c4 51 24 b2 9c a3 d6 2d
       1.0814096e-11 -1.2377122e-08 -9.564648e-09 2.440164e-11
000180 86 12 63 b2 53 9e 5e af 1a 13 e3 ad b9 82 1d 2d
       -1.3217351e-08 -2.024703e-10 -2.5815395e-11 8.953443e-12
000190 bb 45 9f 2c f7 9b 9c 32 ab 3a 5b b2 1c 83 5f 33
       4.5267934e-12 1.8231715e-08 -1.2760817e-08 5.2040477e-08
0001a0 e0 f6 1d b1 16 76 01 36 eb 4a 45 b0 91 1b b8 36
       -2.298684e-09 1.9291233e-06 -7.177465e-10 5.4868365e-06
0001b0 5e 51 ca 2d 02 1d 0a 36 bf d7 68 b2 f9 93 84 b2
       2.3000876e-11 2.0580487e-06 -1.3553232e-08 -1.5434113e-08
0001c0 d0 cb 3d 2d 27 7e d6 ad 47 d0 75 2e ad bf 20 ad
       1.0788662e-11 -2.4385006e-11 5.5891538e-11 -9.137508e-12
0001d0 a4 d8 71 b2 10 04 d4 30 5d 0d 4d 33 35 36 02 2e
       -1.4077305e-08 1.5426185e-09 4.7742436e-08 2.9606723e-11
0001e0 b3 5c 83 b2 61 09 27 b2 0d 4a 33 2c fa 46 6b 2f
       -1.5292562e-08 -9.722812e-09 2.5478536e-12 2.1398341e-10
0001f0 f9 35 be b1 7d 75 a4 bf b5 91 b3 ad 49 06 86 b2
       -5.5358638e-09 -1.2848355 -2.0414651e-11 -1.5602511e-08

exp_inf f4 [1, 128]
000000 e6 e0 18 36 2f 3d 05 36 0f 5c d1 35 81 32 6a 34
       2.2780673e-06 1.9854158e-06 1.5598506e-06 2.1811321e-07
000010 2a 0d 81 33 e6 16 b7 33 2f 09 11 35 a7 39 0f 34
       6.009425e-08 8.525767e-08 5.4030073e-07 1.3338887e-07
000020 cf 56 3f 35 b3 a1 94 33 8f 4e 7f 33 8f 59 b4 33
       7.127937e-07 6.9212e-08 5.9443263e-08 8.398194e-08
000030 b0 7c 71 41 44 23 02 36 09 a4 a0 34 21 88 d4 34
       15.092941 1.9392037e-06 2.9921674e-07 3.9587124e-07
000040 ca fe 97 33 8a 8b c5 33 b9 19 06 36 0d 18 94 37
       7.077831e-08 9.1989094e-08 1.9982529e-06 1.7654174e-05
000050 f4 ec 08 36 e2 b0 f9 35 20 e2 16 33 7d d4 e7 35
       2.0403504e-06 1.8603425e-06 3.5130256e-08 1.7272683e-06
000060 57 a6 1f 36 15 16 e0 35 6d a1 27 36 73 9d 18 36
       2.3789669e-06 1.6695727e-06 2.4978901e-06 2.2741413e-06
000070 6d f1 1a 33 30 c6 f6 35 f4 05 4d 35 59 e9 a8 33
       3.6075495e-08 1.8386108e-06 7.6377114e-07 7.865555e-08
000080 51 b4 be 33 c5 e1 0b 36 85 1c d7 35 07 78 a8 33
       8.880364e-08 2.084403e-06 1.6027049e-06 7.8449425e-08
000090 2e e4 40 34 25 47 72 32 18 21 e3 40 f8 4f 20 36
       1.7964405e-07 1.410243e-08 7.09779 2.3888406e-06
0000a0 27 ee 2f 36 7d 5a fc 35 62 fb 0b 36 f7 cf fa 35
       2.6215655e-06 1.8801799e-06 2.0858938e-06 1.8686977e-06
0000b0 52 10 1e 36 67 fa 09 36 db 5d d4 35 5b 24 da 40
       2.3553334e-06 2.0560344e-06 1.5822546e-06 6.816938
0000c0 86 35 0b 36 3c dd 07 36 8e 41 0e 35 2e 82 58 33
       2.0743769e-06 2.0245343e-06 5.2994517e-07 5.0409817e-08
0000d0 ad b5 73 37 11 78 df 35 f9 b7 48 35 21 f4 21 36
       1.4526228e-05 1.6649739e-06 7.477352e-07 2.4132971e-06
0000e0 96 a0 59 33 df cf 15 36 36 6f 15 36 38 58 cc 41
       5.06703e-08 2.2323727e-06 2.2267463e-06 25.543076
0000f0 d3 9f 0d 36 2e 75 1f 36 6f 4c 20 36 8f 0a 27 33
       2.1103667e-06 2.3761054e-06 2.3886348e-06 3.889232e-08
000100 2b 7b 1d 36 e1 05 1a 36 92 c6 fe 35 1b 90 c1 32
       2.3466516e-06 2.295121e-06 1.8982266e-06 2.2533689e-08
000110 c9 e6 21 33 6a 7a ac 33 15 e9 8c 32 11 40 eb 35
       3.769563e-08 8.031641e-08 1.6404138e-08 1.752751e-06
000120 3e 05 01 36 7a 56 19 36 79 ff c7 34 06 da 3d 34
       1.922555e-06 2.2849113e-06 3.725252e-07 1.7681313e-07
000130 99 2e f7 35 43 55 10 34 6c 23 f7 34 c3 e5 29 36
       1.8416496e-06 1.3442063e-07 4.6033108e-07 2.5316701e-06
000140 c6 4c fa 35 78 8c a9 33 29 f5 b1 34 0a f6 f8 35
       1.8648796e-06 7.895227e-08 3.3147197e-07 1.8549047e-06
000150 56 49 25 36 98 74 de 35 d2 89 14 36 05 d8 c1 34
       2.4629603e-06 1.6574222e-06 2.213394e-06 3.6106226e-07
000160 72 d2 03 36 4b 53 23 33 e8 fa 0e 36 79 ff 14 36
       1.9643016e-06 3.802715e-08 2.1305696e-06 2.2202423e-06
000170 89 b6 1d 33 c8 00 da 35 f6 99 0a 36 86 96 1d 33
       3.6720426e-08 1.6242493e-06 2.065322e-06 3.669131e-08
000180 ff c2 04 36 a2 47 38 34 d7 fe 20 33 11 41 c4 32
       1.9783035e-06 1.7162395e-07 3.748468e-08 2.2846992e-08
000190 5a 55 3e 33 29 22 1f 36 42 ad 05 36 16 63 2d 36
       4.431545e-08 2.371273e-06 1.9919394e-06 2.5836684e-06
0001a0 09 03 12 36 55 a6 cc 36 6d b0 f5 34 bf 6b 2a 37
       2.1757462e-06 6.0990374e-06 4.5763173e-07 1.0157876e-05
0001b0 9c ca 22 33 02 43 d2 36 22 07 04 36 16 ec ee 35
       3.7902836e-08 6.2662884e-06 1.9673685e-06 1.7801092e-06
0001c0 a6 b4 1d 33 d9 f7 95 33 4e 4e 02 34 d0 3c 1d 33
       3.671871e-08 6.9834364e-08 1.213568e-07 3.660972e-08
0001d0 92 ce e2 35 69 f4 3b 35 d9 d2 2b 36 e4 0f 36 33
       1.6898432e-06 7.001859e-07 2.5603715e-06 4.238963e-08
0001e0 a5 79 fc 35 92 65 0a 36 7d c0 88 32 a7 d2 34 34
       1.8810866e-06 2.0622724e-06 1.5920017e-08 1.6840441e-07
0001f0 76 14 0f 36 58 09 0b 41 be 96 25 33 e0 ad f5 35
       2.132057e-06 8.689781 3.8554155e-08 1.8304527e-06
